outputs/mlp_training_example/best_model.pth (torch, 45154 bytes, 14 tensors)

classifier_head.0.weight f4 [128, 4]
0	0x3f01449b	0.5049531
1	0xbee756f2	-0.45183522
2	0x3e8a3d64	0.26999962
3	0xbd98f5e5	-0.07468776
4	0xbe5fe333	-0.21864013
5	0xbeb737d5	-0.35784784
6	0xbdcc8568	-0.09986383
7	0x3e2250e1	0.15851165
8	0xbece8cb3	-0.4034172
9	0x3e5be214	0.2147296
10	0x3d21f6f3	0.03954215
11	0x3ee3a95d	0.4446515
12	0xbe16bb1d	-0.14719816
13	0x3eb32f15	0.34996858
14	0xbe508a91	-0.20365359
15	0xbe34d056	-0.17657599
16	0xbe912c27	-0.28353998
17	0xbe14ad4a	-0.1451923
18	0xbdc377fd	-0.0954437
19	0xbeb5194a	-0.35370857
20	0xbe0bb569	-0.13643421
21	0x3ee3c191	0.44483617
22	0x3eae2e16	0.34019536
23	0x3d3d9cd5	0.046292145
24	0x3d2a682a	0.041603245
25	0xbee0e886	-0.439274
26	0x3eca335e	0.39492315
27	0x3e927797	0.28606865
28	0x3e623359	0.220899
29	0x3ed9340e	0.42422527
30	0xbe70882a	-0.23489442
31	0xbebf4f3c	-0.3736514
32	0xbcfd558f	-0.030924587
33	0x3cbae34a	0.022813458
34	0xbe635697	-0.22201
35	0x3e90044e	0.28128284
36	0xbe4fe9b2	-0.20303991
37	0xbedde21b	-0.43336567
38	0x3ed63688	0.4183848
39	0xbe6ae5cf	-0.22939228
40	0x3ee0a113	0.4387289
41	0xbe908ecb	-0.28233942
42	0x3bea8f87	0.007158223
43	0xbe2fe506	-0.1717721
44	0x3d74e418	0.05978784
45	0x3efdc235	0.4956223
46	0xbeb2b5b7	-0.34904262
47	0x3efe8c04	0.49716198
48	0xbee56531	-0.44803765
49	0xbe0c328f	-0.13691162
50	0xbeae38f4	-0.34027827
51	0xbe830c1a	-0.2559517
52	0xbc2f39f8	-0.010694973
53	0x3e02aba0	0.12760782
54	0xbee30f7f	-0.4434776
55	0xbd8fbfc3	-0.070189975
56	0x3e2710a7	0.16314946
57	0x3ed23492	0.41055733
58	0xbeecc4da	-0.46243936
59	0xbed07c5c	-0.4071988
60	0xbc4bd70e	-0.01244141
61	0x3e1c40ae	0.15259048
62	0xbef1e37b	-0.47243866
63	0x3ed7be0c	0.42137182
64	0x3ebd1ca8	0.36935925
65	0xbe030ab7	-0.12797056
66	0xbefe3130	-0.49646902
67	0xbdd1fc6b	-0.10253223
68	0xbeddaa80	-0.43294144
69	0x3ea9cf33	0.33165893
70	0x3e6aa169	0.22913136
71	0x3ec1ea43	0.3787404
72	0x3ec5f645	0.3866445
73	0xbe9cd941	-0.30634502
74	0xbed3ba5a	-0.41353112
75	0xbea4b41a	-0.32168657
76	0xbee48e76	-0.4463994
77	0x3e0b6940	0.13614368
78	0x3e88a5a0	0.26688862
79	0xbe01839b	-0.1264786
80	0x3eec2edf	0.4612951
81	0xbee7317c	-0.4515494
82	0xbe174ed0	-0.14776158
83	0xbe63b6f4	-0.2223776
84	0xbdcd86ee	-0.100355014
85	0x3ea3e45b	0.3201016
86	0xbecfb6b1	-0.4056907
87	0x3e5fa892	0.21841648
88	0xbe2578e0	-0.16159391
89	0x3e036907	0.12833034
90	0x3ef5c116	0.47998875
91	0x3efb6244	0.49098408
92	0xbef23c15	-0.47311464
93	0x3eb95bf4	0.36202967
94	0xbc81c0ba	-0.01583897
95	0x3ea83e89	0.3286021
96	0x3e077198	0.13226926
97	0xbdd7508d	-0.10513411
98	0x3e00afeb	0.12567107
99	0x3d1fbf31	0.039000694
100	0x3e4dc895	0.20096047
101	0x3eb3bca2	0.35104853
102	0x3d10455e	0.035222404
103	0x3e158f91	0.14605547
104	0x3ee7d31c	0.4527825
105	0x3e072b0a	0.13200012
106	0x3e848d17	0.25888893
107	0x3eaac991	0.33356908
108	0x3e31f270	0.17377639
109	0x3ef6b12d	0.4818205
110	0x3d9f84e7	0.07789021
111	0x3e00498c	0.12528056
112	0x3e108a63	0.1411529
113	0x3e5f05dd	0.2177958
114	0xbed44dca	-0.41465598
115	0xbeb53009	-0.3538821
116	0x3e5af430	0.21382213
117	0xbbf3ff16	-0.00744618
118	0x3e164c19	0.14677466
119	0xbddd2aab	-0.10799154
120	0xbed78d04	-0.42099774
121	0x3eb63919	0.35590437
122	0xbe8b103d	-0.27160826
123	0x3dd9c48c	0.106331915
124	0x3eb18901	0.34674838
125	0x3ec52950	0.3850808
126	0x3ed08718	0.40728068
127	0xbeca6101	-0.39527133
128	0xbef5b3dd	-0.47988787
129	0xbea04010	-0.31298876
130	0x3e531bdd	0.20616098
131	0x3b2f29a9	0.0026727712
132	0x3ea76a95	0.32698503
133	0x3ebe114c	0.3712257
134	0xbee5bdea	-0.44871455
135	0xbe6b791a	-0.22995415
136	0x3e9c6142	0.30542952
137	0xbe9674bd	-0.2938594
138	0xbee531f3	-0.4476467
139	0xbe0b25b4	-0.13588601
140	0x3e463112	0.19354656
141	0xbe81907d	-0.25305548
142	0x3c4d781f	0.012540846
143	0xbc7eb5d0	-0.015546277
144	0xbe776c77	-0.2416247
145	0x3ef1091a	0.47077256
146	0x3eb71622	0.35759073
147	0x3e9d60e8	0.30737996
148	0x3ea2f14b	0.31824717
149	0xbecdf3e6	-0.40225142
150	0x3e46eee1	0.19427063
151	0x3e4ac18c	0.19800395
152	0xbef30ace	-0.4746918
153	0xbe4bd01c	-0.19903606
154	0xbe9642fb	-0.29347977
155	0x3eb2c858	0.34918475
156	0x3f00b01f	0.5026874
157	0xbec17799	-0.37786558
158	0xbeeb366d	-0.4593996
159	0x3ecd7f60	0.40136242
160	0x3ede558e	0.43424648
161	0x3e24fd9c	0.1611237
162	0xbe5d4ab2	-0.21610525
163	0xbd9bcd1b	-0.0760748
164	0xbdfd5f1b	-0.123716556
165	0xbe91af3d	-0.2845401
166	0x3db7dad1	0.08977283
167	0x3e6022da	0.21888295
168	0x3dd69efe	0.10479544
169	0xbede71f0	-0.43446302
170	0x3da1c418	0.0789873
171	0x3e3d6d8e	0.18498823
172	0xbeef8df1	-0.4678798
173	0xbd647323	-0.055773865
174	0xbeb7b71a	-0.35881883
175	0x3e02116a	0.12701955
176	0xbe89faec	-0.2694925
177	0xbe01d945	-0.12680538
178	0x3c98e0a2	0.0186618
179	0x3d43183e	0.04763054
180	0xbece6e89	-0.40318707
181	0x3d08ef9f	0.033431645
182	0x3e867f26	0.26268882
183	0x3ec31e89	0.38109234
184	0xbed538b4	-0.41644824
185	0xbd6fa76d	-0.05850928
186	0x3ee2b100	0.44275665
187	0xbe737f2b	-0.2377898
188	0xbddda5ab	-0.10822614
189	0xbe7ff4a4	-0.24995667
190	0x3e11d713	0.142422
191	0xbbef339e	-0.0072998544
192	0x3d0b2994	0.0339752
193	0xbecea53a	-0.40360433
194	0x3da6cf07	0.08144956
195	0xbe83c4e6	-0.2573616
196	0xbc8d23a7	-0.017228914
197	0x3ed82c8c	0.42221487
198	0x3ecb6a0b	0.39729342
199	0x3eb152d5	0.34633508
200	0x3eb4d8cb	0.3532165
201	0x3b04f1f8	0.0020285826
202	0xbe1875c1	-0.1488867
203	0xbed63a6d	-0.4184145
204	0x3eea5ac0	0.45772362
205	0x3e6eb7cd	0.23312302
206	0x3e345f85	0.17614563
207	0x3e553ef0	0.2082479
208	0x3edbaa73	0.4290348
209	0xbd0af312	-0.033923216
210	0xbef698f9	-0.48163584
211	0x3de2767b	0.110577546
212	0x3eab61e3	0.3347312
213	0xbed13417	-0.40860054
214	0x3ef8b030	0.4857192
215	0x3ef19928	0.4718716
216	0x3ec60ded	0.386825
217	0x3e9a2f85	0.3011438
218	0xbedd42e1	-0.43215087
219	0x3efc581c	0.49285972
220	0xbd8cbadc	-0.06871578
221	0x3e2579a2	0.1615968
222	0xbee18da8	-0.44053388
223	0x3e462cd1	0.19353034
224	0xbe1064d8	-0.14100969
225	0x3da24ac7	0.07924419
226	0xbe5d239e	-0.21595618
227	0x3e159398	0.14607084
228	0xbd2b7ddb	-0.041868072
229	0x3e294b4f	0.16532634
230	0xbdc5a8d8	-0.09651345
231	0x3dff8e83	0.12478354
232	0x3ed4a8bf	0.41534993
233	0xbe80d3d7	-0.2516162
234	0xbecf907a	-0.40539914
235	0x3e9216f5	0.2853314
236	0x3e09b050	0.13446164
237	0xbb85275d	-0.0040635304
238	0xbe539d1d	-0.20665403
239	0xbe9429be	-0.28938097
240	0x3eb9305a	0.36169702
241	0x3e18b3e5	0.14912374
242	0x3e990322	0.29885203
243	0x3e551977	0.20810495
244	0xbed9fd6d	-0.4257616
245	0x3e88988c	0.26678884
246	0x3c5f686d	0.013635737
247	0xbeee7f62	-0.4658156
248	0x3e6bb059	0.2301649
249	0x3ea3eef4	0.32018244
250	0xbca5353f	-0.020166991
251	0xbe8ed4e4	-0.27896798
252	0x3eb5f08f	0.35535094
253	0xbe093bae	-0.13401672
254	0xbec90232	-0.39259487
255	0xbef5aeff	-0.47985074

classifier_head.0.bias f4 [128]
0	0xbe8a8d5d	-0.27060977
1	0xbd93de1e	-0.072201
2	0xbe6e08ee	-0.23245594
3	0x3eddf2d5	0.4334933
4	0x3eb52831	0.35382226
5	0x3e477f44	0.19482142
6	0x3c860a31	0.016362282
7	0x3ad59843	0.0016295988
8	0xbec7151f	-0.38883302
9	0x3ec10654	0.3770014
10	0x3e220bf9	0.1582488
11	0x3ec456cd	0.38347474
12	0x3e9d6bf9	0.3074644
13	0x3dd3920a	0.10330589
14	0x3cdfed53	0.027334845
15	0xbe9e5ba4	-0.3092929
16	0x3e43e91f	0.19131897
17	0x3e99dc51	0.300509
18	0x3e4cc672	0.19997576
19	0xbdc9cc4c	-0.0985342
20	0x3eabe2f0	0.33571577
21	0x3d8d61db	0.0690343
22	0x3eaac932	0.33356625
23	0xbe0f88de	-0.14017054
24	0x3ee24bf0	0.4419856
25	0xbef4f6db	-0.47844586
26	0xbe580429	-0.21095337
27	0xbeee7cd4	-0.4657961
28	0x3a819ac8	0.0009888047
29	0xbee74128	-0.45166898
30	0xbe8e6f10	-0.2781911
31	0xbea088a2	-0.31354243
32	0x3ef5f8fd	0.48041525
33	0x3ef561db	0.4792622
34	0x3e99c823	0.30035505
35	0xbd2a99ea	-0.04165069
36	0xbddcafaf	-0.107756965
37	0x3ef4c041	0.47802928
38	0xbc4c574c	-0.012471985
39	0xbef4e380	-0.4782982
40	0xbe6c0209	-0.23047651
41	0x3d747b47	0.05968788
42	0x3df6ee41	0.12057162
43	0x3ed36ca8	0.41293836
44	0x3e585c76	0.21129021
45	0xbd9e5265	-0.07730559
46	0x3dd7540f	0.1051408
47	0xbcbf966b	-0.023387155
48	0xbeba3a4f	-0.3637261
49	0x3e09d890	0.13461518
50	0xbeb70fdb	-0.35754284
51	0xbb76a788	-0.0037636478
52	0x3e680d76	0.22661385
53	0x3d1507e7	0.03638449
54	0xbe13d17b	-0.14435379
55	0xbe2b6d2f	-0.16740869
56	0xbe1e36ed	-0.1545064
57	0x3dcafb14	0.099111706
58	0xbd4ab2eb	-0.049487036
59	0x3ed98988	0.4248774
60	0x3cacbbd8	0.021085665
61	0xbea5423c	-0.32277095
62	0xbd4c5b85	-0.049891967
63	0xbe4b429d	-0.1984963
64	0x3dd53b2e	0.10411678
65	0x3ea57f0c	0.32323492
66	0xbdb5f9d3	-0.08885541
67	0xbce46efc	-0.027884953
68	0xbe4229ae	-0.18961212
69	0x3e6f3d9e	0.23363349
70	0xbe763925	-0.24045236
71	0xbd3e8247	-0.04651096
72	0xbe1384bd	-0.14406104
73	0x3ef14d5a	0.47129327
74	0xbe920222	-0.28517252
75	0x3999d054	0.0002933765
76	0xbea5fe17	-0.32420418
77	0x3ecec3e3	0.40383825
78	0x3dd74d62	0.105128065
79	0xbecc8620	-0.3994608
80	0xbeb61695	-0.35564104
81	0xbb197551	-0.0023415873
82	0x3ccadf07	0.02476455
83	0xbe72aa7c	-0.23697847
84	0xbec9f96b	-0.39448103
85	0x3e90dbce	0.28292698
86	0x3df8b9c7	0.12144809
87	0xbea6c11b	-0.32569203
88	0xbe73face	-0.23826143
89	0x3ed053ed	0.4068903
90	0xbe7cf93e	-0.24704453
91	0xbeefe61b	-0.46855244
92	0xbee5925e	-0.44838232
93	0xbe875048	-0.26428437
94	0x3d89b2d6	0.067235634
95	0xbe0a6910	-0.1351664
96	0x3ecce84e	0.40020984
97	0xbeb8cda2	-0.36094385
98	0xbe934930	-0.28766775
99	0xbec3c018	-0.38232493
100	0x3daf55da	0.08561297
101	0x3e24d292	0.16095951
102	0x3ea33a15	0.3188025
103	0xbd6c2588	-0.05765298
104	0x3e4cb3b8	0.19990432
105	0x3c9d7cd2	0.019224558
106	0xbe2847da	-0.16433659
107	0x3c2886f3	0.010286081
108	0x3eabee71	0.33580354
109	0xbe1f12ba	-0.15534487
110	0x3e92e788	0.2869227
111	0x3afccb46	0.0019286654
112	0x3e1bd7d3	0.15219049
113	0xbeb2e504	-0.3494035
114	0x3d437a7a	0.047724225
115	0xbd9333c6	-0.071876094
116	0xbe1b8ed3	-0.15191202
117	0xbe011a2e	-0.12607643
118	0xbe3de033	-0.18542556
119	0xba7f70e9	-0.0009744303
120	0x3e5bca55	0.21463902
121	0x3e83f87f	0.25775525
122	0x3de8a497	0.11359518
123	0xbe166b7a	-0.14689437
124	0x3eef51c5	0.46742073
125	0x3e20482c	0.15652531
126	0x3ede6248	0.43434358
127	0xbd429064	-0.047500983

classifier_head.1.weight f4 [128]
0	0x3f8162b8	1.0108252
1	0x3f8093fe	1.0045164
2	0x3f801751	1.0007116
3	0x3f818357	1.0118207
4	0x3f7fddcc	0.9994781
5	0x3f7dd5e3	0.9915449
6	0x3f818118	1.0117521
7	0x3f80e272	1.0069106
8	0x3f800397	1.0001096
9	0x3f7cdf36	0.9877809
10	0x3f7e059b	0.99227303
11	0x3f7fc708	0.9991307
12	0x3f818e90	1.0121632
13	0x3f812364	1.0088925
14	0x3f810b27	1.0081528
15	0x3f7fbe8c	0.99900126
16	0x3f8128a5	1.0090529
17	0x3f7f3077	0.99683326
18	0x3f7fd554	0.9993489
19	0x3f8107d7	1.0080518
20	0x3f7fd646	0.9993633
21	0x3f7e4c83	0.993355
22	0x3f7e4786	0.99327886
23	0x3f8034d8	1.0016127
24	0x3f812137	1.0088261
25	0x3f7d9eee	0.9907063
26	0x3f7ee11b	0.99562234
27	0x3f7d8557	0.99031585
28	0x3f818118	1.0117521
29	0x3f7d77b3	0.9901077
30	0x3f8142c3	1.0098499
31	0x3f7d1e2e	0.98874176
32	0x3f809b0b	1.0047315
33	0x3f812150	1.0088291
34	0x3f80cf76	1.0063312
35	0x3f80e255	1.0069071
36	0x3f7fbdd1	0.9989901
37	0x3f7ca415	0.9868787
38	0x3f7d4ace	0.9894227
39	0x3f7ced78	0.9879985
40	0x3f80ebbe	1.0071943
41	0x3f816093	1.0107597
42	0x3f7f1ccb	0.9965331
43	0x3f7df2ef	0.9919881
44	0x3f7d74aa	0.9900614
45	0x3f7f9840	0.9984169
46	0x3f7ff41c	0.99981856
47	0x3f7f1dbe	0.9965476
48	0x3f80447f	1.0020903
49	0x3f802e20	1.0014076
50	0x3f816cc3	1.0111316
51	0x3f800f92	1.0004752
52	0x3f7e57b3	0.9935257
53	0x3f8192c0	1.012291
54	0x3f8007ae	1.0002344
55	0x3f81a83c	1.0129466
56	0x3f7cd2d3	0.9875919
57	0x3f807989	1.003709
58	0x3f7ffde4	0.9999678
59	0x3f7d4f35	0.98948985
60	0x3f7ea082	0.99463665
61	0x3f80e1b9	1.0068885
62	0x3f7eac1a	0.99481356
63	0x3f812f63	1.0092586
64	0x3f7dc2c8	0.9912534
65	0x3f7e93f4	0.9944451
66	0x3f802b83	1.0013279
67	0x3f7ed3d3	0.9954197
68	0x3f8090da	1.0044205
69	0x3f7f3260	0.9968624
70	0x3f7f570f	0.99742216
71	0x3f7d5e6e	0.98972213
72	0x3f7d7b7a	0.99016535
73	0x3f80bba6	1.0057266
74	0x3f80c65c	1.0060534
75	0x3f7d75d6	0.9900793
76	0x3f7ddd10	0.9916544
77	0x3f7fc399	0.99907833
78	0x3f817119	1.011264
79	0x3f817b8c	1.0115829
80	0x3f816f68	1.0112123
81	0x3f7d9566	0.9905609
82	0x3f811025	1.0083052
83	0x3f80214c	1.0010161
84	0x3f81ad68	1.0131044
85	0x3f7d346d	0.9890812
86	0x3f805089	1.0024577
87	0x3f8192ec	1.0122962
88	0x3f7ffbc0	0.99993515
89	0x3f809b77	1.0047444
90	0x3f7f0342	0.99614346
91	0x3f80e281	1.0069124
92	0x3f7d38ee	0.9891499
93	0x3f7d8e80	0.9904556
94	0x3f800937	1.0002812
95	0x3f7f074a	0.996205
96	0x3f818ee1	1.0121728
97	0x3f7e83dc	0.9941995
98	0x3f80780a	1.0036633
99	0x3f7d40b9	0.98926884
100	0x3f8105bb	1.0079874
101	0x3f80211d	1.0010105
102	0x3f7e9592	0.99446976
103	0x3f807a2e	1.0037286
104	0x3f7d612c	0.989764
105	0x3f7d519e	0.9895266
106	0x3f7e1867	0.99255985
107	0x3f7ed4d0	0.99543476
108	0x3f7e6ffe	0.99389637
109	0x3f8037ee	1.0017068
110	0x3f80512c	1.0024772
111	0x3f81876c	1.0119452
112	0x3f7e5c61	0.9935971
113	0x3f7d6203	0.9897768
114	0x3f810cac	1.0081992
115	0x3f7ee29e	0.9956454
116	0x3f7e2ba3	0.99285334
117	0x3f7e04ce	0.9922608
118	0x3f7e2beb	0.99285764
119	0x3f8128d8	1.009059
120	0x3f7ea238	0.99466276
121	0x3f7d586c	0.98963046
122	0x3f80faea	1.0076573
123	0x3f7eab6f	0.99480337
124	0x3f7ca36e	0.98686874
125	0x3f7f6cd6	0.99775445
126	0x3f816448	1.0108728
127	0x3f8153a2	1.0103648

classifier_head.1.bias f4 [128]
0	0x3c43aad0	0.01194258
1	0xbc0d01bb	-0.00860637
2	0xbbbdf699	-0.005797219
3	0x3c1a2e79	0.009410494
4	0x3b8eb8ea	0.0043555396
5	0xbbf4e83a	-0.0074739726
6	0x3c630632	0.013856458
7	0x3bd88920	0.0066081434
8	0x3bb62ce5	0.005559551
9	0xbbd09039	-0.006364849
10	0xbb80b7c3	-0.003928156
11	0x3b4a7b39	0.00308962
12	0x3c414607	0.011796481
13	0x3c1960cf	0.00936146
14	0xbc0935fa	-0.008374685
15	0xbbed29af	-0.007237635
16	0x3c35bd5e	0.011092512
17	0x3c617e1e	0.013762979
18	0x3aec36b8	0.0018021679
19	0x3b3ef3af	0.0029136946
20	0xbc328a9f	-0.010897308
21	0xbc070834	-0.008241702
22	0xbbd43a2f	-0.0064766626
23	0xbab62ebc	-0.0013899426
24	0x3c21a5e7	0.009866214
25	0xbc08efd6	-0.008357963
26	0xbc22ee59	-0.009944522
27	0xbbff0c08	-0.0077834167
28	0x3c11d250	0.00890024
29	0xbc2fb4d1	-0.010724262
30	0x3c032282	0.008003833
31	0xbc40580e	-0.011739744
32	0x3bb7761c	0.0055987965
33	0x3c0b3740	0.008497059
34	0x3bd629ba	0.006535736
35	0x3c235636	0.009969285
36	0xbae68862	-0.0017588253
37	0xbc544d5b	-0.012957896
38	0xbc2c006e	-0.010498149
39	0xbc5cdda0	-0.013480574
40	0xbc0cdd13	-0.00859763
41	0x3c22432b	0.009903709
42	0xbb8315ec	-0.004000416
43	0xbb97114d	-0.0046102167
44	0xbbffe28a	-0.007808988
45	0xbb55ad22	-0.0032604416
46	0x3ba1f180	0.004942119
47	0xbc0ef52b	-0.008725445
48	0xbb414f8a	-0.0029496872
49	0x3bd7548b	0.0065713576
50	0x3c143f72	0.00904833
51	0x3a3b5e3d	0.00071475265
52	0x3a5641e2	0.00081732695
53	0x3c3acbbf	0.011401116
54	0x3b23acab	0.0024974744
55	0x3c38d72a	0.011281768
56	0xbc4a3763	-0.012342307
57	0x3c06e717	0.008233807
58	0x3a6ebd27	0.00091071654
59	0xbc2a85f6	-0.010407915
60	0xbc297589	-0.010342964
61	0x3c0129ba	0.007883484
62	0xbb4c04c7	-0.0031130777
63	0x3c23afd4	0.009990651
64	0xbc45e96a	-0.012079576
65	0xbbb0a9ee	-0.005391351
66	0xb8d8df44	-0.00010341269
67	0xbb689bb7	-0.0035493204
68	0x3b9f8d09	0.0048691076
69	0xbb7ec4a8	-0.003887454
70	0xbc0c676f	-0.008569582
71	0xbc12cee3	-0.008960458
72	0xbc12b69e	-0.008954672
73	0x3c014705	0.0078904675
74	0x3bac9c92	0.005267688
75	0xbc380bed	-0.011233312
76	0xbc322b09	-0.010874518
77	0x3b0ebfd9	0.002178183
78	0x3c46015d	0.012085286
79	0x3c28dbe9	0.010306337
80	0x3c36d88a	0.011160025
81	0xbc21a6b1	-0.0098664025
82	0x3bd51406	0.006502631
83	0xbb409ca7	-0.0029390247
84	0x3c6d660e	0.014489664
85	0xbbfc5e50	-0.0077016726
86	0xbb460dc0	-0.0030220598
87	0x3c3afa17	0.011412165
88	0xbbb41a8f	-0.00549633
89	0x3abccd32	0.0014404415
90	0xbbf9b668	-0.0076206215
91	0x3bf17b0c	0.0073694047
92	0xbc316a77	-0.010828606
93	0xbbf4e116	-0.0074731214
94	0x3ba9ab6c	0.005177906
95	0xbb9ddcf8	-0.0048176013
96	0x39021c1e	0.0001240824
97	0xbbf9625d	-0.007610603
98	0xbb84fc26	-0.0040583787
99	0xbc15875b	-0.00912651
100	0x3bf24585	0.0073935413
101	0x3a550818	0.0008126511
102	0xbb3e941f	-0.0029079986
103	0x3b3269f7	0.0027223804
104	0x3b9daf86	0.004812184
105	0xbc48c62e	-0.012254281
106	0xbbc85dee	-0.006114713
107	0xbbdb016e	-0.00668352
108	0xbc11b07e	-0.008892177
109	0xbb49ea73	-0.0030809909
110	0x3b62c80c	0.00346041
111	0x3c3e878e	0.011628998
112	0xbc30ad4d	-0.010783506
113	0xbc309e2f	-0.010779901
114	0x3c071139	0.008243852
115	0x3b85416c	0.004066637
116	0xbc24f86f	-0.010068997
117	0xbba08608	-0.0048987903
118	0xbb68705a	-0.0035467357
119	0x3c1a5ebe	0.009422002
120	0x3bdfbc9c	0.006827904
121	0xbc2b2980	-0.010446906
122	0x3c113a0f	0.00886394
123	0xbba06615	-0.0048949816
124	0xbc543cdf	-0.012953966
125	0xbbe5ceff	-0.0070132012
126	0x3c001a37	0.00781875
127	0xbaa52711	-0.0012600144

classifier_head.1.running_mean f4 [128]
0	0xbe320032	-0.17382887
1	0x3d9446fe	0.07240103
2	0xbe27ece2	-0.16398957
3	0x3e93c90f	0.28864333
4	0x3eb40041	0.35156444
5	0x3e074b3c	0.13212293
6	0x3e775b76	0.24155983
7	0xbe79958f	-0.24373458
8	0xbebcd9b5	-0.36884847
9	0x3f09b049	0.53784615
10	0x3e243647	0.1603633
11	0x3e8c47d7	0.2739856
12	0x3e9d91e1	0.3077536
13	0xbb27b542	-0.0025590216
14	0xbe78a6b2	-0.24282339
15	0xbeac8749	-0.33696964
16	0x3dd442a9	0.10364277
17	0x3eb28ab5	0.3487145
18	0x3e0938e1	0.13400604
19	0xbd9a0d6c	-0.07522091
20	0x3eb593b1	0.35464242
21	0xbcd7e19c	-0.026352696
22	0x3eecb29a	0.46230012
23	0xbe0a1fbb	-0.13488667
24	0x3ef51269	0.47865608
25	0xbf1225e1	-0.5708905
26	0xbe5488ce	-0.20755312
27	0xbf176ee1	-0.5915356
28	0xbe477a31	-0.19480206
29	0xbef1ba08	-0.47212243
30	0xbeb29cbd	-0.34885207
31	0xbef6a3b1	-0.48171762
32	0x3f26b0c0	0.6511345
33	0x3e6e7d62	0.23290017
34	0x3e893986	0.268017
35	0x3c115c4f	0.008872106
36	0xbdee3e62	-0.11632992
37	0x3f1df66b	0.6170413
38	0x3dfd9272	0.12381448
39	0xbed272c1	-0.41103175
40	0xbebc1a9b	-0.36739048
41	0x3e541f15	0.20714982
42	0x3e8e51aa	0.2779668
43	0x3ee9fa5c	0.45698822
44	0x3e93f55a	0.28898126
45	0x3d788dd4	0.060682133
46	0x3e3c8582	0.18410304
47	0x3da12cfe	0.0786991
48	0xbe9131a4	-0.28358185
49	0x3e00ca06	0.12577066
50	0xbefb0f6e	-0.4903521
51	0xbd83d46c	-0.06437001
52	0x3e13e1d1	0.14441611
53	0x3e871baa	0.26388294
54	0xbe7995b2	-0.2437351
55	0xbe69e428	-0.22840941
56	0xbe26bfb8	-0.16284072
57	0x3d85aefd	0.06527517
58	0xbccbe309	-0.024888532
59	0x3ea95094	0.3306929
60	0x3c449788	0.0119990185
61	0xbedd09ad	-0.43171445
62	0xbe62f868	-0.22165072
63	0xbeab97c1	-0.33514217
64	0x3d99e13e	0.07513665
65	0x3e8d2477	0.27566883
66	0xbda969fc	-0.08272168
67	0xbdbfd13a	-0.09366079
68	0xbdd15699	-0.10221595
69	0x3da962e8	0.08270818
70	0xbe644ebb	-0.22295658
71	0x3d44f342	0.04808355
72	0xbe688f66	-0.22710952
73	0x3f2aa5be	0.6665915
74	0xbea14578	-0.31498313
75	0x3e5e4428	0.21705687
76	0xbec0a144	-0.37623036
77	0x3e8b3221	0.27186683
78	0x3e116279	0.1419772
79	0xbe97929f	-0.2960405
80	0xbeceb366	-0.40371245
81	0x3c9938b7	0.018703802
82	0x3e0cc6e6	0.13747749
83	0xbea8dc3f	-0.32980534
84	0xbf00ceb9	-0.50315434
85	0x3e860a91	0.26179937
86	0x3e243dcc	0.16039199
87	0xbee3807a	-0.44433957
88	0xbd8f7b48	-0.07005936
89	0x3ee40b62	0.44539934
90	0xbe8efeba	-0.27928716
91	0xbf01dcb6	-0.50727403
92	0xbea64905	-0.32477584
93	0xbebfaa81	-0.37434772
94	0xbbcad93c	-0.006190447
95	0xbdd34182	-0.10315229
96	0x3eeeac25	0.4661571
97	0xbec903ea	-0.392608
98	0xbe2c1a68	-0.16806948
99	0xbef63e6c	-0.480945
100	0x3df9aac2	0.121907726
101	0x3cf46d9a	0.029837418
102	0x3d96a656	0.07355945
103	0xbd37de58	-0.044889778
104	0x3ded5a4e	0.1158949
105	0x3c46ce70	0.0121341795
106	0xbe5892de	-0.21149775
107	0xbcb60301	-0.02221823
108	0x3ed1cb54	0.4097544
109	0x3da0c2f0	0.078496814
110	0x3e93b370	0.28847837
111	0xbc067142	-0.008205714
112	0x3e32e1c6	0.17468938
113	0xbde1becc	-0.1102272
114	0xbe165484	-0.14680678
115	0xbe121ac4	-0.14268023
116	0xbe3bfb79	-0.18357648
117	0xbcaefc59	-0.021360563
118	0xbe8d3c39	-0.2758501
119	0xbdd60ad1	-0.10451282
120	0x3e986ebd	0.29771987
121	0x3df6da31	0.120533355
122	0x3d942d74	0.07235232
123	0xbebb73ec	-0.3661188
124	0x3ec1814d	0.3779396
125	0x3dd0c951	0.10194648
126	0x3e9c1535	0.3048493
127	0x3d1aacf6	0.037762605

classifier_head.1.running_var f4 [128]
0	0x3f32218a	0.69582427
1	0x3e1ca1d0	0.15296102
2	0x3dabf272	0.08395852
3	0x3ee073a4	0.43838227
4	0x3f1992fd	0.5998991
5	0x3e6961dd	0.22791238
6	0x3f5529aa	0.832667
7	0x3eddbed8	0.43309665
8	0x3c25b645	0.010114257
9	0x3e592694	0.21206123
10	0x3e152657	0.14565407
11	0x3e948e47	0.290148
12	0x3f9670e2	1.1753199
13	0x3eb3eafb	0.35140213
14	0x3f5ad166	0.85475767
15	0x3d2e1773	0.04250283
16	0x3de3d6f7	0.11124986
17	0x3e2530c8	0.1613189
18	0x3e835516	0.25650853
19	0x3de0aaf1	0.109701045
20	0x3e387474	0.18013173
21	0x3e4fbe13	0.20287351
22	0x3f52c83e	0.82336795
23	0x3e16382c	0.14669865
24	0x3de2febe	0.110837445
25	0x3e882ebc	0.26598155
26	0x3f96f45c	1.1793323
27	0x3eb586c8	0.35454392
28	0x3f1397c0	0.5765343
29	0x3d916947	0.07100158
30	0x3ef3dbc6	0.4762861
31	0x3e8a5408	0.27017236
32	0x3e4e3d72	0.20140627
33	0x3ec531d3	0.38514575
34	0x3e333ea5	0.17504366
35	0x3dc3d7e0	0.09562659
36	0x3ecb91be	0.3975963
37	0x3f340283	0.7031633
38	0x3e6bd280	0.23029518
39	0x3e9a76e3	0.30168828
40	0x3da1da12	0.07902922
41	0x3e154c2f	0.14579843
42	0x3eac9b82	0.33712393
43	0x3f033cba	0.51264536
44	0x3d891b63	0.06694677
45	0x3e0c5543	0.137044
46	0x3d86d023	0.06582668
47	0x3d9755cb	0.073894106
48	0x3e306cc0	0.17228985
49	0x3f3c98d9	0.73670727
50	0x3debb615	0.11509339
51	0x3f4a6fc7	0.7907681
52	0x3cd3af14	0.02584032
53	0x40036c7c	2.0534964
54	0x3ea14c67	0.31503603
55	0x3e182ada	0.14860097
56	0x3d70d2a3	0.05879463
57	0x3cfca1a8	0.030838802
58	0x3e06c9d4	0.13162929
59	0x3e39d896	0.18149027
60	0x3f52791a	0.82216036
61	0x3f6543a7	0.89556354
62	0x3e0e22ec	0.13880509
63	0x3ecf5e7c	0.40501773
64	0x3dbf979c	0.09355089
65	0x3d8abd08	0.06774336
66	0x3e2bb743	0.16769128
67	0x3e642674	0.22280294
68	0x3ea50cea	0.32236415
69	0x3def0ff8	0.11672968
70	0x3d79ffb7	0.061034884
71	0x3e86ada0	0.2630434
72	0x3f023bdb	0.5087258
73	0x3f3d1739	0.7386356
74	0x3e189ce3	0.14903598
75	0x3e5be284	0.21473128
76	0x3d40ac3d	0.04703926
77	0x3f03b64a	0.51450026
78	0x3cd1ac7b	0.02559494
79	0x3ecdc595	0.40189806
80	0x3e1d9bb6	0.1539143
81	0x3f6b84c3	0.91999453
82	0x3e8104f4	0.2519909
83	0x3e068990	0.13138413
84	0x3e1fc11d	0.1560101
85	0x3ecebedc	0.4037999
86	0x3e9862c3	0.2976285
87	0x3e52cb4a	0.20585361
88	0x3ebe05b0	0.37113714
89	0x3d335dca	0.043790616
90	0x3d3ab409	0.04558185
91	0x3e217fbe	0.15771386
92	0x3efe2ef4	0.49645197
93	0x3eddeb63	0.43343648
94	0x3d1b2140	0.037873507
95	0x3ed43fd6	0.41454953
96	0x3f8dde34	1.1083436
97	0x3fbef597	1.4918698
98	0x3e28cf04	0.1648522
99	0x3e5969ab	0.21231715
100	0x3f1291c9	0.572537
101	0x3f4ea4ec	0.807204
102	0x3e904a3b	0.28181633
103	0x3db29946	0.08720641
104	0x3dfe4156	0.124148056
105	0x3e48d590	0.19612718
106	0x3ed9f935	0.42572942
107	0x3ebbbbc7	0.366667
108	0x3e4c38e6	0.1994358
109	0x3eff946e	0.4991793
110	0x3e463272	0.19355181
111	0x3f1c16be	0.609722
112	0x3ec11bc0	0.37716484
113	0x3e94032f	0.2890868
114	0x3e5d8325	0.21632059
115	0x3e55db63	0.2088447
116	0x3e717aed	0.23582049
117	0x3da40e20	0.08010507
118	0x3e67560b	0.22591417
119	0x3ec7fe23	0.39061078
120	0x3e3caee0	0.18426085
121	0x3f7f1ec6	0.9965633
122	0x3e5bcde7	0.21465264
123	0x3fe8d86d	1.8191048
124	0x3f4233eb	0.7586047
125	0x3ca45fc9	0.020065205
126	0x3eb90e46	0.36143702
127	0x3e8b5c41	0.27218822

classifier_head.4.weight f4 [64, 128]
0	0xbcce2351	-0.025163325
1	0xbd772b7a	-0.060344197
2	0xbd887062	-0.0666206
3	0x3d1eb073	0.038742494
4	0x3d8020a5	0.062562265
5	0xbdab1093	-0.08352771
6	0xbbb274f5	-0.0054460713
7	0xbc9ab3c1	-0.018884541
8	0xbd333cce	-0.04375916
9	0x3d09e0a6	0.033661507
10	0x3d037675	0.03209539
11	0x3d93251d	0.07184813
12	0x3cb875de	0.022517141
13	0xbbf6801b	-0.0075225956
14	0xbd99eba4	-0.07515648
15	0xbd03c409	-0.032169376
16	0x3d81d69d	0.06339762
17	0x3c841046	0.016121041
18	0xbd9b4dc9	-0.07583196
19	0x3d1994e8	0.037495524
20	0xbcf1f2f3	-0.029534793
21	0x3b92f90e	0.004485256
22	0x3cef7b03	0.029233461
23	0xbda18e7b	-0.07888504
24	0xbcc8dd09	-0.02451946
25	0x3c1940f4	0.009353865
26	0xbb8e7c01	-0.0043482785
27	0x3d08ded4	0.03341563
28	0x3d4e2cdf	0.05033576
29	0x3d4bb621	0.04973424
30	0x3d31100e	0.0432282
31	0x3db91601	0.090374
32	0xbccf7159	-0.025322603
33	0x3d5c302f	0.05375689
34	0x3c6dfb5b	0.01452526
35	0x3ca1bdb8	0.019743785
36	0x3d6e8986	0.05823662
37	0x3d0a4a54	0.03376229
38	0x3c993a1a	0.018704463
39	0x3db956c4	0.09049752
40	0xbc4e8c78	-0.012606733
41	0x3d88474e	0.06654225
42	0x3d36f3fe	0.044666283
43	0xbd632065	-0.055450816
44	0xbd9955be	-0.07487057
45	0x3d1c035c	0.03808914
46	0xbd9aacad	-0.075524665
47	0x3d589508	0.052876502
48	0x3db80cf3	0.08986845
49	0xbda7d99a	-0.08195801
50	0xbc890730	-0.01672706
51	0xbd8ff276	-0.07028668
52	0x3cbe2467	0.023210717
53	0x3cfd889f	0.030948935
54	0x3d4079a0	0.04699099
55	0xbd978344	-0.07398084
56	0x3d8605e5	0.06544093
57	0xbcf3e05b	-0.029770067
58	0x3d7885e5	0.060674567
59	0xbd1ac338	-0.03778383
60	0x3d74d0c5	0.05976941
61	0x3d924ef4	0.07143965
62	0x3c4c01b4	0.012451578
63	0x3ce4e8fb	0.027943125
64	0x3c164c46	0.009173458
65	0x3d32a4ff	0.043614384
66	0xbce1376c	-0.027492248
67	0x3d17124a	0.036882676
68	0xbcc85f07	-0.024459375
69	0xba26a183	-0.00063564646
70	0xbce5ab3d	-0.028035754
71	0xbd04dad9	-0.032435272
72	0x3c820fe9	0.015876727
73	0x3c9a4e23	0.018836087
74	0x3d14e637	0.036352362
75	0x3d827075	0.06369106
76	0xbd992eb8	-0.07479614
77	0xbaf3895d	-0.0018580366
78	0xbd7c8664	-0.061651602
79	0xbdaf1599	-0.08549041
80	0x3cb61461	0.022226514
81	0x3cc99849	0.024608748
82	0x3dbcaf56	0.0921313
83	0xbac87c90	-0.0015295912
84	0x3d5e2cc0	0.054241896
85	0x3c15f492	0.009152548
86	0x3cf7f35d	0.030267412
87	0xbb50d8c0	-0.0031867474
88	0x3d161454	0.03664048
89	0x3d1157a1	0.03548396
90	0xbd12cf8c	-0.035842463
91	0x3c10ff83	0.008849981
92	0xbda41e05	-0.08013538
93	0x3da31d1c	0.079645365
94	0x3d32320c	0.04350476
95	0x3d4fce04	0.05073358
96	0xbccbd7a5	-0.0248831
97	0xbd147a60	-0.03624952
98	0x3d4bea9d	0.04978429
99	0xbb208632	-0.002449405
100	0xbdbb5916	-0.09147851
101	0x3da4637d	0.080267884
102	0x3d6e05f2	0.05811114
103	0xbb2ff75c	-0.0026850319
104	0xbafef447	-0.0019451462
105	0x3d6f0b98	0.058360666
106	0x3ce5ae20	0.02803713
107	0xbd247407	-0.040149715
108	0xbda15ada	-0.07878657
109	0x3d34f68e	0.044180445
110	0x3b93b0d3	0.004507163
111	0xbd3f8830	-0.046760738
112	0xbcad8d74	-0.021185614
113	0x3cba4237	0.022736652
114	0xbc6221ca	-0.013802001
115	0x3d42fe15	0.047605593
116	0x3c4ecef6	0.0126225855
117	0xbd3d8f56	-0.046279274
118	0x3d874495	0.06604878
119	0xbd9d8ea0	-0.07693219
120	0xbda0da64	-0.07854155
121	0xbda355fa	-0.07975383
122	0xbd236baf	-0.039897617
123	0xbc5fc8d4	-0.013658721
124	0xbd8f335a	-0.069922164
125	0xbc2901d1	-0.0103153745
126	0x3d2833b1	0.04106492
127	0xbd331c29	-0.043728027
128	0xbbc3fa61	-0.005980775
129	0x3d18d203	0.037309658
130	0xbc366ccd	-0.011134339
131	0xbaedf403	-0.0018154386
132	0xbcb4cf0f	-0.02207139
133	0xbd8bb82c	-0.06822237
134	0x3d7563da	0.05990968
135	0xbdb885c1	-0.090098865
136	0x3d4233e5	0.04741277
137	0x3d18f28f	0.037340697
138	0xbd7a3d67	-0.061093714
139	0x3d9b926a	0.07596286
140	0xbd15c9f0	-0.036569536
141	0x3cbc1bec	0.022962533
142	0x3d908a60	0.07057643
143	0xbd0abde0	-0.033872485
144	0xbdb02139	-0.08600087
145	0x3d24dc11	0.040248934
146	0x3d49784f	0.049187
147	0xbd5bfb43	-0.05370642
148	0xbc7dec3a	-0.015498215
149	0x3ba6b8b6	0.005087937
150	0x3db52c43	0.08846333
151	0x3cf6b691	0.030116351
152	0xbd33a709	-0.04386047
153	0xbd4a0165	-0.049317736
154	0xbbe2c2cd	-0.0069201947
155	0x3d9fd899	0.078049846
156	0xbd8b4ca9	-0.06801731
157	0x3d44903c	0.047989115
158	0x3c76b976	0.015058866
159	0xbd41e880	-0.04734087
160	0x3d5b9cab	0.053616207
161	0x3d698530	0.057011783
162	0xbd822458	-0.06354588
163	0xbd3dc290	-0.046328127
164	0xbd9382b2	-0.072026625
165	0x3d53b414	0.051685408
166	0xbd98968d	-0.0745059
167	0x3d6aabda	0.057292797
168	0x3bada142	0.0052987644
169	0xbd818f7e	-0.06326197
170	0xbd0477ac	-0.03234069
171	0x3d655e9a	0.055998422
172	0xbd52314f	-0.051316556
173	0x3cbaecb4	0.022817947
174	0xbd92cfd6	-0.07168548
175	0x3c879f7b	0.016555538
176	0x3d9a8482	0.07544805
177	0x3d865071	0.06558312
178	0x3bc68fb3	0.0060596108
179	0xbc6707a8	-0.0141009465
180	0xbdb83a7f	-0.08995532
181	0x3c162e6a	0.009166339
182	0xbd9946a6	-0.07484178
183	0x3c87facc	0.016599081
184	0x3bfa9648	0.0076473095
185	0xbc9a622b	-0.018845638
186	0xbd627027	-0.055282738
187	0x3bd791f8	0.00657868
188	0xbd895405	-0.067054786
189	0xbba3863c	-0.004990367
190	0x3cba7b86	0.022763979
191	0x3d02fcae	0.031979255
192	0x3da6e417	0.081489734
193	0x3ba2ecb5	0.0049720653
194	0x3cf0c2a4	0.029389687
195	0xbc562a79	-0.01307165
196	0xbc62f494	-0.013852257
197	0xbd1399e3	-0.03603543
198	0xbced55d0	-0.028971583
199	0xbb622ca4	-0.0034511471
200	0xbd8cd74c	-0.06877002
201	0x3d5c9c80	0.053860188
202	0x3d3f6e4f	0.046736058
203	0xbd9fdb6e	-0.07805525
204	0xbc961419	-0.01832013
205	0x3d91a26a	0.07111056
206	0x3d62205e	0.05520665
207	0xbc4ddd0d	-0.01256491
208	0x3ce96c35	0.02849398
209	0x3d797e68	0.060911566
210	0xbdab50fb	-0.08365055
211	0xbc3841f7	-0.011246196
212	0xbd38f724	-0.045157567
213	0x3d4f54f7	0.05061814
214	0xbcedd4b1	-0.029032083
215	0xbca1b588	-0.019739881
216	0x3c77ab03	0.015116456
217	0xbd25e5dc	-0.040502414
218	0x3d7eabea	0.06217567
219	0xbcf7d47c	-0.030252688
220	0xbd9dc441	-0.07703448
221	0xbcb7ff0b	-0.022460481
222	0xbd85fef7	-0.06542771
223	0xbd4932d0	-0.049120724
224	0x3d9cad4b	0.076502405
225	0xbd03a7a5	-0.0321423
226	0xbd66a820	-0.05631268
227	0xbce39b08	-0.027783886
228	0x3db7d2a1	0.08975721
229	0xbd9ed55f	-0.07755541
230	0xbca16600	-0.019701958
231	0x3d775f6c	0.060393736
232	0xbcfb8137	-0.030701263
233	0xbdca265d	-0.098705985
234	0x3da06274	0.078312784
235	0xbda50122	-0.08056857
236	0x3c01939a	0.007908726
237	0x3d8cfb15	0.068838276
238	0x3dc15573	0.09440126
239	0xbdaa5d3d	-0.08318565
240	0x3bfbac55	0.0076804557
241	0xbc99dc96	-0.018781941
242	0xbd9013c9	-0.07035024
243	0x3c6714e1	0.014104099
244	0xbc867c37	-0.016416652
245	0x3d8ce45c	0.068794936
246	0x3db242a9	0.08704121
247	0x3c09dd42	0.008414568
248	0x3d862e4e	0.06551801
249	0x3da46020	0.08026147
250	0x3d77113e	0.060319178
251	0x3bea9813	0.007159242
252	0xbd357e89	-0.044310126
253	0x3c97d618	0.018534705
254	0xbcc51fe3	-0.024063056
255	0xbcde3a4c	-0.027127407

classifier_head.4.bias f4 [64]
0	0xbb4214ee	-0.0029614526
1	0xbd57a1ca	-0.05264453
2	0xbcad1357	-0.021127386
3	0xbd36dac2	-0.044642217
4	0xbd6d59a6	-0.057946824
5	0x3a4f1fe8	0.0007901178
6	0x3a2c0b90	0.0006563002
7	0x3d4c20a8	0.04983583
8	0xbd342f66	-0.043990515
9	0xbd18eaea	-0.037333407
10	0xbc22f090	-0.00994505
11	0xbb263243	-0.0025359548
12	0xbd105b52	-0.03524334
13	0x3d582ee8	0.05277911
14	0x3c4e87ed	0.012605649
15	0xbd007391	-0.031360213
16	0xbd83352b	-0.06406625
17	0x3a8509ff	0.0010150074
18	0x384ddf76	4.9083923e-05
19	0xbd8dc805	-0.06922916
20	0x3cce3894	0.025173463
21	0xbc501bd1	-0.012701944
22	0x3d5d6293	0.054049086
23	0x3d112a19	0.035440538
24	0x3d92ef86	0.07174592
25	0x3d80b01b	0.062835895
26	0x3cc37f58	0.023864433
27	0xbcb4f8f6	-0.02209137
28	0xbac879db	-0.0015295105
29	0x3cc082bd	0.02349984
30	0x3d4ee540	0.0505116
31	0x3cfde279	0.03099178
32	0x3d3d0954	0.046151474
33	0xbafa7115	-0.0019107187
34	0x3a9bae7c	0.0011877562
35	0x3ac1fc2d	0.0014799886
36	0x3cc78a89	0.02435805
37	0x3d5ee604	0.05441858
38	0xbc881cd5	-0.01661531
39	0xbd8df5ce	-0.06931649
40	0xbcefa478	-0.02925323
41	0x3bf656a3	0.007517652
42	0xbcf952ea	-0.030435044
43	0x3c8f1953	0.01746813
44	0xbd74bcc4	-0.059750333
45	0x3d2c3994	0.0420471
46	0x3a673b52	0.000882079
47	0xbaf687fb	-0.0018808836
48	0x3d9229f0	0.07136905
49	0x3d57990d	0.052636195
50	0x3a674ada	0.00088231044
51	0x387bc1e0	6.0023624e-05
52	0x3cd00025	0.025390694
53	0x3cbdee19	0.023184823
54	0x3d445ac3	0.04793812
55	0x3d7dc62f	0.06195658
56	0x3cfc6c51	0.030813368
57	0x3d9349ed	0.071918346
58	0x3d0a7f59	0.033812854
59	0x3cfa138d	0.0305269
60	0x3d4e9a22	0.05043996
61	0xbcd7d9c9	-0.026348965
62	0x3d2c865c	0.042120323
63	0x3c6c6224	0.014427695

classifier_head.5.weight f4 [64]
0	0x3f7cd0cc	0.987561
1	0x3f81c350	1.013773
2	0x3f81b891	1.013445
3	0x3f81a52f	1.0128535
4	0x3f80d001	1.0063478
5	0x3f7fad95	0.9987424
6	0x3f8151a4	1.010304
7	0x3f80b123	1.0054058
8	0x3f81472d	1.0099846
9	0x3f7fa54d	0.99861604
10	0x3f7fcc7a	0.9992138
11	0x3f800b57	1.0003461
12	0x3f81bcb0	1.0135708
13	0x3f814eee	1.0102212
14	0x3f7f8690	0.998147
15	0x3f81622d	1.0108086
16	0x3f8103a6	1.0079238
17	0x3f8048e2	1.0022242
18	0x3f7feb53	0.9996845
19	0x3f81b999	1.0134765
20	0x3f7f6189	0.997582
21	0x3f815e48	1.0106897
22	0x3f804ed7	1.002406
23	0x3f8046b7	1.002158
24	0x3f805920	1.0027199
25	0x3f81f3e9	1.015256
26	0x3f81cf12	1.0141318
27	0x3f813cbe	1.0096662
28	0x3f80625c	1.0030017
29	0x3f81b28d	1.0132614
30	0x3f801269	1.0005618
31	0x3f8047c7	1.0021905
32	0x3f7ca422	0.98687947
33	0x3f80ee46	1.0072715
34	0x3f7d9615	0.9905713
35	0x3f81da28	1.0144701
36	0x3f7f5569	0.997397
37	0x3f80ddd1	1.0067693
38	0x3f7eac84	0.9948199
39	0x3f7d2452	0.98883545
40	0x3f805fc3	1.0029224
41	0x3f7ec288	0.9951558
42	0x3f7f62e4	0.9976027
43	0x3f805a11	1.0027486
44	0x3f81f07f	1.0151519
45	0x3f7e0dab	0.99239606
46	0x3f80c293	1.0059379
47	0x3f81ca38	1.0139837
48	0x3f8141f0	1.0098248
49	0x3f7ced20	0.98799324
50	0x3f7e25e0	0.9927654
51	0x3f805452	1.0025733
52	0x3f81c29e	1.0137517
53	0x3f8010ce	1.0005128
54	0x3f7e1dd9	0.99264294
55	0x3f7ee4bc	0.9956777
56	0x3f7def0c	0.9919288
57	0x3f7d7b37	0.99016136
58	0x3f8084d3	1.0040535
59	0x3f7db6b4	0.9910691
60	0x3f81fa7b	1.0154566
61	0x3f81ceb4	1.0141206
62	0x3f81b5e2	1.0133631
63	0x3f809e2a	1.0048268

classifier_head.5.bias f4 [64]
0	0xbc43fd08	-0.011962183
1	0x3c758a2c	0.014986556
2	0x3be0e547	0.0068632695
3	0x3c66dc8b	0.0140906675
4	0x3c282cd2	0.010264592
5	0x3bbc4d56	0.005746524
6	0x3c01272a	0.007882873
7	0x3b91d5d0	0.0044505373
8	0x3c11a735	0.008889963
9	0xba76cee6	-0.00094149855
10	0x3b7e2862	0.0038781394
11	0xbc1bcffb	-0.009510036
12	0x3c305539	0.010762506
13	0x3c44ec37	0.012019209
14	0xbbfb51fb	-0.007669685
15	0x3c0ac48c	0.008469712
16	0xbb7de040	-0.00387384
17	0x3c0c3973	0.008558619
18	0xbbc66a53	-0.0060551553
19	0x3c356d33	0.011073398
20	0x3b8e05f5	0.004334206
21	0x3c67d287	0.014149315
22	0x3b0e8608	0.002174737
23	0x3b8d03d4	0.004303435
24	0xbadde0a7	-0.0016927914
25	0x3c626f2c	0.013820451
26	0x3c5e0897	0.013551853
27	0x3c05b4ec	0.008160811
28	0xbbd975ed	-0.0066363723
29	0x3c5780bf	0.013153254
30	0x3b30b501	0.0026963355
31	0xba8db983	-0.0010812733
32	0xbc5c9129	-0.013462343
33	0xbc02889f	-0.007967143
34	0xbc341394	-0.010990996
35	0x3c5b9108	0.013401277
36	0xbbb75823	-0.0055952235
37	0x3bec40ea	0.007209887
38	0xbb9a6909	-0.004712228
39	0xbc0e42a1	-0.008682878
40	0x3b3d2a3a	0.002886428
41	0xbbad89b8	-0.0052959584
42	0xbb934ed1	-0.0044954796
43	0x3ae33df3	0.0017337188
44	0x3c6e71bf	0.014553486
45	0xbbf354c2	-0.0074258754
46	0xbb7e63dd	-0.0038816847
47	0x3c317d1a	0.010833049
48	0x3c0347b1	0.008012698
49	0xbc2997b2	-0.010351108
50	0xbbfc82e7	-0.0077060345
51	0x3c124b48	0.008929081
52	0x3c5bbab7	0.0134112155
53	0x3be3b3af	0.00694891
54	0xbc25b33a	-0.010113532
55	0xbc23e2c9	-0.0100028
56	0xbc2a6356	-0.01039966
57	0xbc27eb01	-0.0102489
58	0xbb5a7045	-0.0033331078
59	0xbc1b7f26	-0.009490764
60	0x3c84d281	0.016213657
61	0x3c749d3b	0.014930065
62	0x3c3e3ef1	0.011611686
63	0x3bf0e456	0.0073514385

classifier_head.5.running_mean f4 [64]
0	0x3e291d9a	0.16515198
1	0xbe4a5667	-0.19759522
2	0xbeb99d24	-0.362527
3	0xbd361c58	-0.044460624
4	0xbe2dcf40	-0.16973591
5	0xbe3dee60	-0.18547964
6	0xbe82b434	-0.2552811
7	0xbe2fcee3	-0.17168765
8	0x3e89ab30	0.26888418
9	0xbd5943f3	-0.053043317
10	0xbde6cfe0	-0.11270118
11	0x3e24b465	0.1608444
12	0xbea4e486	-0.322056
13	0x3e8f6b24	0.2801143
14	0x3e039a61	0.1285186
15	0x3f0bb032	0.5456573
16	0xbe482c45	-0.19548137
17	0x3e147dc2	0.14501098
18	0xbdb8889f	-0.090104334
19	0x3e95ccee	0.2925791
20	0x3dd2f79f	0.10301136
21	0x3ed0f842	0.40814406
22	0x3dfa6ac4	0.12227395
23	0x3e4709ad	0.19437285
24	0x3e00c8df	0.12576626
25	0xbea7ecb0	-0.32797766
26	0x3d85257f	0.065012924
27	0xbe18a060	-0.14904928
28	0x3e9452d9	0.28969458
29	0x3e26e453	0.16298036
30	0x3df26933	0.118364714
31	0x3eb619fc	0.355667
32	0xbdaa4002	-0.0831299
33	0x3e070368	0.13184893
34	0xbe49d05b	-0.19708388
35	0x3e91e1fa	0.2849272
36	0x3db57f1c	0.08862135
37	0xbd97f76e	-0.0742024
38	0xbe0f570b	-0.13998048
39	0xbf1c7672	-0.61118233
40	0x3eb3fbc6	0.35153025
41	0xbf16041e	-0.5860003
42	0x3d877746	0.066145465
43	0x3ef4955d	0.47770205
44	0xbeed86c0	-0.4639187
45	0xbe3e81a2	-0.18604138
46	0xbf29bd42	-0.6630441
47	0xbc63d028	-0.013904609
48	0x3e423f2a	0.18969408
49	0x3e89309d	0.26794901
50	0xbceda714	-0.029010333
51	0xbe4d8712	-0.20071056
52	0xbe50512b	-0.20343463
53	0x3e1d0a02	0.15335849
54	0x3e2a1ab8	0.16611755
55	0x3dbccc11	0.0921861
56	0xbe00744f	-0.12544368
57	0xbdb42330	-0.08795774
58	0xbd9fa430	-0.07794988
59	0xbe064c67	-0.13115083
60	0xbd0179de	-0.031610362
61	0x3efdc20c	0.4956211
62	0xbd161376	-0.036639653
63	0xbe17b6e8	-0.14815867

classifier_head.5.running_var f4 [64]
0	0x3db60c0b	0.08889016
1	0x3ed1e803	0.40997323
2	0x3e6ad964	0.2293449
3	0x3ebcea12	0.3689733
4	0x3e3ba7ef	0.1832578
5	0x3e0bd121	0.13653995
6	0x3eea8874	0.4580723
7	0x3ebf698b	0.3738521
8	0x3e95309e	0.29138654
9	0x3f08ccc6	0.5343746
10	0x3f06b1ee	0.5261525
11	0x3e9f9a5c	0.31172454
12	0x3f248e25	0.64279395
13	0x3e2267de	0.15859935
14	0x3e9bb830	0.3041396
15	0x3ebe2a86	0.37141818
16	0x3e07877e	0.1323528
17	0x3e1cee58	0.15325296
18	0x3ed9e898	0.42560267
19	0x3f5a4718	0.8526473
20	0x3e403792	0.18771198
21	0x3e8ea43f	0.27859685
22	0x3e9b0a14	0.30281126
23	0x3e8d1bb4	0.27560198
24	0x3e8b7a05	0.2724153
25	0x3eb8d530	0.3610015
26	0x3e93c23b	0.28859124
27	0x3f0c2e1e	0.5475787
28	0x3e5a9471	0.21345688
29	0x3ef3f3c2	0.4764691
30	0x3e9fd6a1	0.31218436
31	0x3eabb7f1	0.33538774
32	0x3de6d8f1	0.11271847
33	0x3ec215f1	0.37907365
34	0x3eead785	0.45867553
35	0x3e57f67f	0.21090125
36	0x3eb4eb76	0.35335892
37	0x3ee2a526	0.44266623
38	0x3e6bc132	0.23022917
39	0x3e99f942	0.3007298
40	0x3eb11b7a	0.34591275
41	0x3f1ae9a4	0.6051276
42	0x3e95d3fd	0.29263297
43	0x3e047b1c	0.12937587
44	0x3f116957	0.5680136
45	0x3e7d9ab5	0.24766047
46	0x3e21088a	0.15725914
47	0x3e8f0571	0.2793384
48	0x3ec4bdad	0.3842596
49	0x3e42f192	0.19037464
50	0x3e2a964c	0.16658896
51	0x3f284699	0.65732723
52	0x3ebd950a	0.3702777
53	0x3e568631	0.20949627
54	0x3e7f50b8	0.24933136
55	0x3e758ac4	0.23978716
56	0x3ebacf8f	0.3648648
57	0x3e79af62	0.2438331
58	0x3eaf7e5a	0.34276086
59	0x3eb8d41e	0.36099333
60	0x3e8427f6	0.25811738
61	0x3efdf4b6	0.49600762
62	0x3f1a26e8	0.60215616
63	0x3e89da55	0.26924387

classifier_head.8.weight f4 [3, 64]
0	0xbcb8ee60	-0.022574604
1	0xbc818c88	-0.01581408
2	0x3d9d6caa	0.07686742
3	0x3dccc674	0.099987894
4	0x3df359a6	0.118823335
5	0xbdc3e308	-0.09564787
6	0x3de075ce	0.109599695
7	0xbdf671b4	-0.12033406
8	0x3d487aae	0.04894512
9	0x3daeaa11	0.08528531
10	0xbd8f4b16	-0.069967434
11	0x3d856101	0.06512643
12	0x3dd6b9c1	0.104846485
13	0x3d56e4c5	0.052464265
14	0xbdf7af9f	-0.12094044
15	0x3d32d819	0.043663118
16	0xbcf1b901	-0.029507162
17	0xbde4a14a	-0.11163576
18	0xbcca84c0	-0.024721503
19	0xbd1dca10	-0.03852278
20	0x3d006d93	0.031354498
21	0x3dc53773	0.09629717
22	0xbd8165e6	-0.06318264
23	0xbdf154ff	-0.1178379
24	0x3d4bbccb	0.049740594
25	0xbd9ef72c	-0.07761988
26	0xbdad18e0	-0.0845201
27	0x3d868f9c	0.0657036
28	0x3d3bae39	0.04582045
29	0x3df5aaf7	0.119954996
30	0xbcf08978	-0.029362425
31	0x3d10ebf9	0.03538129
32	0x3db6a705	0.08918575
33	0xbdfe09bf	-0.12404203
34	0xbc23ba1e	-0.009993104
35	0xbdbf0b1b	-0.0932829
36	0x3dd5511f	0.10415863
37	0x3df15b27	0.11784964
38	0xbc87ac0c	-0.01656153
39	0xbdeca63f	-0.115551464
40	0x3d9a1a9b	0.07524606
41	0xbd8f08de	-0.06984113
42	0xbc91616f	-0.017746655
43	0x3d7112bb	0.058855753
44	0xbc1076b9	-0.008817368
45	0xbd9f6dd5	-0.07784621
46	0xbdd81abd	-0.10551975
47	0x3dd5f31b	0.10446759
48	0x3dc04d92	0.09389795
49	0xbda13d01	-0.07872964
50	0xbd11d4e3	-0.035603415
51	0x3dcdb495	0.10044209
52	0x3d8f294f	0.06990301
53	0xbccb4d11	-0.024817022
54	0x3d6d58ea	0.057946123
55	0x3ddbf94d	0.1074091
56	0xbbfefc8e	-0.0077815717
57	0xbca206a8	-0.019778565
58	0x3d7053d5	0.0586737
59	0xbd0f7f8f	-0.03503376
60	0xbd56ef7a	-0.052474476
61	0x3d66eee5	0.05638017
62	0x3df8ab85	0.1214209
63	0xbd9aedca	-0.07564886
64	0x3d79dcf2	0.061001725
65	0xbcbf8865	-0.023380468
66	0xbc4542a4	-0.012039814
67	0x3d2aedbb	0.041730624
68	0x3d836b57	0.06416958
69	0xbd42d854	-0.047569588
70	0xbcf5ddd3	-0.030013
71	0x3c4a671d	0.012353686
72	0xbdb6fb00	-0.08934593
73	0x3baadb4a	0.0052141296
74	0xbd81a825	-0.06330899
75	0x3dc014b5	0.093789496
76	0xbb961984	-0.0045806784
77	0x3c9b6eff	0.018973825
78	0x3dcce5e8	0.10004789
79	0xbde0c76c	-0.10975537
80	0x3dcf7114	0.1012899
81	0x3da19f2e	0.07891689
82	0xbd77e47b	-0.06052063
83	0xbdca2550	-0.09870398
84	0x3db07e40	0.0861783
85	0xbd427247	-0.047472265
86	0x3d17519e	0.03694307
87	0x3a9ae179	0.0011816464
88	0x3de2cec0	0.11074591
89	0x3cdfb6b2	0.027308796
90	0xbd1039ed	-0.035211492
91	0xbe0659c8	-0.13120186
92	0x3e045127	0.12921582
93	0xbd536fe3	-0.051620375
94	0x3d667d05	0.05627157
95	0xbda5ba4d	-0.08092175
96	0x3da6ad2a	0.08138497
97	0x3cb971ac	0.02263721
98	0x3b7aaf9b	0.0038251642
99	0xbd7847a0	-0.060615182
100	0x3d400b3f	0.046885725
101	0x3d96362d	0.07334552
102	0xbdf4a344	-0.11945203
103	0x3d68b380	0.05681181
104	0xbc4e72ee	-0.012600644
105	0xbcf64004	-0.030059822
106	0x3d6f8c9b	0.0584837
107	0xbdbdfec0	-0.09277105
108	0xbdd31d70	-0.10308349
109	0x3df03afc	0.117300004
110	0xbbad957d	-0.0052973614
111	0x3aa5b0a9	0.001264115
112	0x3d6fb36c	0.05852072
113	0x3aff941e	0.0019499098
114	0xbdb2f482	-0.087380424
115	0xbdc166be	-0.09443425
116	0xbe0dc7a5	-0.1384569
117	0xbde52c71	-0.11190117
118	0xbae10a85	-0.0017169273
119	0xbdd872d8	-0.1056878
120	0x3de499ca	0.111621454
121	0xbcf6c3a0	-0.030122578
122	0x3bed7050	0.0072460547
123	0xbd51988b	-0.051170867
124	0xbc65d6b7	-0.014028243
125	0x3db20e37	0.086941175
126	0xbd89f610	-0.06736386
127	0x3ce218f3	0.027599787
128	0xbddd6933	-0.10811081
129	0x3d72cced	0.059277464
130	0x3daac8e8	0.08339101
131	0x3e0830b6	0.13299832
132	0x3de0e29b	0.109807216
133	0xbd9fdcf8	-0.07805818
134	0x3e016b1c	0.12638515
135	0x3ce306fc	0.027713291
136	0x3cb1b407	0.021692289
137	0xbdaebfb5	-0.08532659
138	0x3d4033b6	0.046924315
139	0xbcb19e90	-0.021682054
140	0x3c805f54	0.015670456
141	0x3d7bb968	0.061456114
142	0xbd6ffc3e	-0.058590166
143	0x3d4e9ad0	0.05044061
144	0xbd679e5a	-0.0565475
145	0xbda467d2	-0.08027615
146	0xbddf39e8	-0.108997166
147	0xbd54021c	-0.051759824
148	0x3dea14bc	0.11429736
149	0xbb38b61a	-0.0028184713
150	0x3ca7fdbd	0.020506734
151	0x3dae2812	0.085037366
152	0xbd0e7f1f	-0.0347892
153	0x3d7b11ef	0.0612964
154	0xbd106d4e	-0.03526049
155	0x3dc5de07	0.09661489
156	0xbaba2158	-0.0014200611
157	0x3d6fa489	0.058506522
158	0x3d176d9a	0.03696976
159	0xbde8aa5e	-0.1136062
160	0x3c375693	0.0111900745
161	0xbdebd8cb	-0.11515959
162	0xbd7c9946	-0.06166961
163	0x3d6828c7	0.056679513
164	0x3c7bc68c	0.0153671615
165	0x3db933ac	0.09043059
166	0xbd5b2df6	-0.05351063
167	0xbd755d9a	-0.05990372
168	0x3d1166f6	0.03549858
169	0xbd50e197	-0.05099639
170	0xbd8c8672	-0.06861581
171	0x3d19b4dc	0.037525997
172	0x3dc87e79	0.09789748
173	0xbddc2e18	-0.10750979
174	0xbdcbd4d7	-0.09952705
175	0x3dccbca2	0.09996916
176	0x3d1844cc	0.037174985
177	0xbcc9037f	-0.0245378
178	0xbd54d3a3	-0.051959645
179	0x3dc0ea78	0.09419721
180	0x3dae95ac	0.085246414
181	0x3df03b13	0.117300175
182	0xbd1805b6	-0.03711482
183	0xbdd7e6f7	-0.105421
184	0x3ca62dd8	0.020285532
185	0xbd3051c6	-0.043046735
186	0xbddde8f2	-0.108354464
187	0xbd75cbcf	-0.06000882
188	0x3c3b98f8	0.011450045
189	0x3e0cab21	0.13737155
190	0xbc3c3e55	-0.0114894705
191	0x3dea7e0f	0.11449825

classifier_head.8.bias f4 [3]
0	0xbd1e7881	-0.03868914
1	0xbd698efa	-0.05702112
2	0xbdc040d8	-0.09387368
